…
      "outputs": [
        {
          "output_type": "stream",
          "name": "stdout",
          "text": [
            "Model: \"vgg16\"\n",
            "_________________________________________________________________\n",
            " Layer (type)                Output Shape              Param #   \n",
            "=================================================================\n",
            " input_1 (InputLayer)        [(None, 64, 64, 3)]       0         \n",
            "                                                                 \n",
            " block1_conv1 (Conv2D)       (None, 64, 64, 64)        1792      \n",
            "                                                                 \n",
            " block1_conv2 (Conv2D)       (None, 64, 64, 64)        36928     \n",
            "                                                                 \n",
            " block1_pool (MaxPooling2D)  (None, 32, 32, 64)        0         \n",
            "                                                                 \n",
            " block2_conv1 (Conv2D)       (None, 32, 32, 128)       73856     \n",
            "                                                                 \n",
            " block2_conv2 (Conv2D)       (None, 32, 32, 128)       147584    \n",
            "                                                                 \n",
            " block2_pool (MaxPooling2D)  (None, 16, 16, 128)       0         \n",
            "                                                                 \n",
            " block3_conv1 (Conv2D)       (None, 16, 16, 256)       295168    \n",
            "                                                                 \n",
            " block3_conv2 (Conv2D)       (None, 16, 16, 256)       590080    \n",
            "                                                                 \n",
            " block3_conv3 (Conv2D)       (None, 16, 16, 256)       590080    \n",
            "                                                                 \n",
            " block3_pool (MaxPooling2D)  (None, 8, 8, 256)         0         \n",
            "                                                                 \n",
            " block4_conv1 (Conv2D)       (None, 8, 8, 512)         1180160   \n",
            "                                                                 \n",
            " block4_conv2 (Conv2D)       (None, 8, 8, 512)         2359808   \n",
            "                                                                 \n",
            " block4_conv3 (Conv2D)       (None, 8, 8, 512)         2359808   \n",
            "                                                                 \n",
            " block4_pool (MaxPooling2D)  (None, 4, 4, 512)         0         \n",
            "                                                                 \n",
            " block5_conv1 (Conv2D)       (None, 4, 4, 512)         2359808   \n",
            "                                                                 \n",
            " block5_conv2 (Conv2D)       (None, 4, 4, 512)         2359808   \n",
            "                                                                 \n",
            " block5_conv3 (Conv2D)       (None, 4, 4, 512)         2359808   \n",
            "                                                                 \n",
            " block5_pool (MaxPooling2D)  (None, 2, 2, 512)         0         \n",
            "                                                                 \n",
            " flatten (Flatten)           (None, 2048)              0         \n",
            "                                                                 \n",
            " fc1 (Dense)                 (None, 4096)              8392704   \n",
            "                                                                 \n",
            " fc2 (Dense)                 (None, 4096)              16781312  \n",
            "                                                                 \n",
            " predictions (Dense)         (None, 2)                 8194      \n",
            "                                                                 \n",
            "=================================================================\n",
            "Total params: 39,896,898\n",
            "Trainable params: 39,896,898\n",
            "Non-trainable params: 0\n",
            "_________________________________________________________________\n"
          ]
        }
…
